mnist.pth (torch, 409168 bytes, 4 tensors)

fc1.weight f4 [128, 784]
0.041941117 -0.0012387553 -0.010321239 -0.009611697 -0.012422554 0.0277978 0.030755984 0.014059656
0.031707086 -0.026328437 0.022447072 -0.009068702 0.023496583 -0.0011644141 0.042595707 -0.01892006
0.009101754 -0.013341846 0.02628674 0.026658963 -0.0109585775 0.0066873734 0.00667946 -0.025812019
0.03550559 -0.017036587 0.010620167 0.005044594 0.010426346 -0.025988325 -0.0032813668 -0.003928616
-0.001663927 -0.0075760772 0.014799642 -0.006542704 -0.0061122957 -0.00042566494 0.028415294 0.03608729
0.05095676 -0.016245443 0.01965448 0.045649033 0.028152078 -0.00042796362 -0.015968105 0.009797181
0.03762201 0.030435035 0.019622503 0.03574491 -0.01333365 -0.021455389 -0.010890951 -0.011191276
0.023805954 -0.012092215 -0.017015843 0.01106841 -0.012280131 0.023969641 0.02365543 0.02331387
0.04415707 -0.0023673843 0.03659763 0.039304093 0.023282059 0.03244058 -0.013272086 0.011924554
0.008144813 0.042679768 0.056292173 0.038879074 0.052942064 0.010691744 0.035374317 -0.0041862954
-0.016054604 0.032350242 0.032016054 0.012771286 0.039197206 0.026284296 0.016185917 -0.0075654383
-0.009992635 -0.0077249776 -0.0029940326 -0.023332372 -0.029263042 0.01867531 -0.020759914 -0.015504643
-0.023907974 0.047266595 0.0008988968 -0.08740374 -0.054978374 0.05959887 0.097873844 0.03359761
-0.0149369035 0.0893004 0.042106893 0.038133096 0.03803184 0.025397364 0.042045746 0.025089052
0.016672494 0.04040707 -0.0074225576 -0.022411928 -0.017000306 -0.0036738506 -0.03423324 -0.043878227
-0.09147432 -0.11116529 -0.07157015 -0.08879844 0.029347291 0.028702233 -0.024828225 -0.0957182
0.0030340878 0.061773673 0.06656585 0.010907931 0.046971586 -0.012598024 -0.058441482 0.027864994
-0.03358282 -0.005798764 0.036486972 -0.013512246 0.0009991346 -0.010126295 0.035621557 0.008461299
-0.018403724 -0.02473675 -0.105013564 -0.16810074 -0.14913884 -0.09336055 -0.04272849 0.03869283
-0.0030786926 -0.036828995 -0.037586287 -0.040444314 -0.06228057 0.033749066 0.051469523 0.10356548
0.08719358 0.12411454 0.07064927 0.03804457 0.044183232 0.052498233 0.014278449 0.0011572788
-0.010596652 0.044886604 -0.008508877 -0.027835302 -0.023477757 -0.08309965 -0.15668151 -0.1137091
-0.14094932 -0.07031011 -0.033974785 0.006072294 -0.04382695 -0.010911941 -0.01817309 -0.010455585
0.010892342 -0.0068104104 0.053499334 0.072981805 0.059070095 0.06434371 0.093333274 0.011269768
0.016185263 -0.0008210022 -0.0023063999 0.03524896 0.021803498 -0.0044609113 0.0018901184 0.018567553
-0.059931915 -0.107238024 -0.14376982 -0.17831217 -0.12757783 -0.069118075 -0.0057865316 0.027685652
0.029047003 -0.006445867 -0.029799318 0.039591145 0.033808667 0.024034971 0.09869294 0.04740939
0.101124085 0.1531819 0.16507137 0.03875496 -0.026284605 0.0026907565 -0.012167844 -0.0042053573
0.024713496 0.042774025 0.004852385 0.0051858295 -0.0657683 -0.13569216 -0.17055438 -0.106595084
-0.069780834 -0.04269884 0.016976915 0.05562225 0.07932801 0.0429577 0.008174919 0.014038742
0.023643205 0.056488577 -0.0005304788 0.060476687 0.07340121 0.080863215 0.037171047 0.11893146
-0.0020499828 -0.047952663 0.010005765 -0.017604249 0.034831524 0.02203476 -0.016936477 -0.026829077
00000000: 73ca 2b3d bb5d a2ba 6a1a 29bc 617a 1dbc
00000010: f887 4bbc 36b8 e33c f9f3 fb3c 795a 663c
00000020: 4adf 013d bcae d7bc ece2 b73c e594 14bc
00000030: e87b c03c 419f 98ba d678 2e3d 3efe 9abc
00000040: 861f 153c c297 5abc 4a57 d73c e663 da3c
00000050: 9b8b 33bc c121 db3b 5fdf da3b ba73 d3bc
00000060: 4f6e 113d 5090 8bbc 3500 2e3c 1f4d a53b
00000070: 44d3 2a3c 78e5 d4bc 330c 57bb 9fbb 80bb
00000080: 2018 daba be40 f8bb 337a 723c 2e64 d6bb
00000090: a749 c8bb c82b dfb9 31c7 e83c 44d0 133d
000000a0: 09b8 503d 2a15 85bc 6f02 a13c 7bfa 3a3d
000000b0: 309f e63c 4e60 e0b9 8bcf 82bc 5b84 203c
000000c0: 8919 1a3d e552 f93c 5fbf a03c 4169 123d
000000d0: 6275 5abc 36c3 afbc f66f 32bc 9d5b 37bc
000000e0: b404 c33c 6d1e 46bc cf64 8bbc 4758 353c
000000f0: 9a32 49bc fb5b c43c 08c9 c13c bbfc be3c
00000100: 0bde 343d 1e26 1bbb 65e7 153d 54fd 203d
00000110: 04ba be3c 6ae0 043d 2a73 59bc 345f 433c
00000120: d271 053c fbd0 2e3d 9f92 663d aa3f 1f3d
00000130: c7d9 583d 6d2c 2f3c a9e4 103d 312d 89bb
00000140: f284 83bc b081 043d 4423 033d a83e 513c
00000150: 408d 203d 2a52 d73c 5498 843c 7fe7 f7bb
00000160: 26b8 23bc cf21 fdbb 8837 44bb 8823 bfbc
00000170: 0cb9 efbc f7fc 983c b210 aabc 3007 7ebc
00000180: a8da c3bc 9e9a 413d f1a3 6b3a bb00 b3bd
00000190: 0131 61bd f21d 743d 1572 c83d a69d 093d
000001a0: eab9 74bc 21e3 b63d 4778 2c3d 7331 1c3d
000001b0: 46c7 1b3d 220e d03c 2938 2c3d 8e87 cd3c
000001c0: c194 883c e281 253d ed38 f3bb 3899 b7bc
000001d0: 3a44 8bbc fcc4 70bb 2738 0cbd a8b9 33bd
000001e0: e356 bbbd a1aa e3bd 5f93 92bd f5db b5bd
000001f0: bb69 f03c f220 eb3c 9064 cbbc e707 c4bd
00000200: 8cd7 463b 6406 7d3d ad53 883d 2eb7 323c
00000210: 4765 403d f167 4ebc 5660 6fbd 2145 e43c
00000220: 248e 09bd 8f03 bebb 5d73 153d 7862 5dbc
00000230: 65f5 823a c2e8 25bc e9e7 113d 43a1 0a3c
00000240: 68c3 96bc baa4 cabc 5a11 d7bd 9a22 2cbe
00000250: dab7 18be d133 bfbd 1204 2fbd 5f7c 1e3d
00000260: e4c3 49bb 00da 16bd 14f4 19bd f0a8 25bd
00000270: e919 7fbd 763c 0a3d b5d1 523d 231a d43d
00000280: 8c92 b23d c42f fe3d 91b0 903d 9fd4 1b3d
00000290: 7af9 343d 6308 573d 28f0 693c d5af 973a
000002a0: 949d 2dbc 04db 373d d168 0bbc dc06 e4bc
000002b0: 6d54 c0bc 2630 aabd 1e71 20be 51e0 e8bd
000002c0: 0555 10be bffe 8fbd 2529 0bbd 18fa c63b
000002d0: e383 33bd ffc7 32bc bbdf 94bc e74d 2bbc
000002e0: cb75 323c dd29 dfbb 1e22 5b3d 7c77 953d
000002f0: 7cf3 713d a3c6 833d 8425 bf3d d5a4 383c
00000300: f596 843c 8638 57ba f826 17bb 3761 103d
00000310: 409d b23c d62c 92bb d9bd f73a fb1a 983c
00000320: 2b7b 75bd 9c9f dbbd 6538 13be 7797 36be
00000330: c3a3 02be c78d 8dbd f29c bdbb 05cd e23c
00000340: fbf3 ed3c da37 d3bb b31d f4bc 532a 223d
00000350: f57a 0a3d fde4 c43c 861f ca3d 5930 423d
00000360: 251a cf3d b7db 1c3e 7808 293e 85bd 1e3d
00000370: d052 d7bc 6757 303b a35b 47bc 18cd 89bb
00000380: f573 ca3c d133 2f3d c100 9f3b e4ed a93b
00000390: 88b1 86bd e3f2 0abe cfa5 2ebe 864e dabd
000003a0: 41e9 8ebd fbe4 2ebd 2c13 8b3c 28d4 633d
000003b0: b976 a23d 6af4 2f3d 18f0 053c c002 663c
000003c0: 65af c13c 9160 673d d40f 0bba 67b6 773d
000003d0: 6053 963d 9d9b a53d ab40 183d 5692 f33d
000003e0: 0159 06bb 036a 44bd 38ef 233c c936 90bc
000003f0: 80ab 0e3d 3e82 b43c 5ebe 8abc a7c8 dbbc

fc1.bias f4 [128]
-0.017203342 -0.03331923 -0.008209969 0.011118011 -0.0059247348 0.007451869 -0.0314384 -0.0018618341
0.008830142 -0.03739563 0.023950994 -0.03779229 -0.00024382092 -0.010985937 0.051386133 -0.051027104
0.0064519523 0.0023370427 0.02628334 -0.0004921145 0.023825698 -0.012458301 -0.011582266 -0.026040224
-0.008045651 0.033383094 0.011348575 -0.0044171102 0.025504613 -0.0331991 -0.0015669335 -0.040505487
0.006917201 0.015011498 0.013034232 -0.0005486765 0.0063861986 0.0016273108 -0.0052553443 -0.009948249
-0.029205875 -0.022324909 -0.03660638 0.017687105 0.019240137 -0.034270756 0.035599627 0.017524961
0.0056769135 0.014199709 -0.022934567 0.022245882 -0.056138106 -0.019585319 0.026819903 0.03362273
-0.0007700072 -0.052545477 0.011868443 0.010092947 0.0015740251 -0.00076552713 0.011915575 0.016401827
-0.07755426 -0.037251707 -0.029625207 0.0008208048 -0.004489271 0.03537588 -0.024106922 0.031217728
-0.006743472 -0.041675065 0.003332599 -0.009295717 -0.02474632 -0.036871217 0.003372027 0.016577242
-0.040822417 0.007139198 0.03699701 -0.030238159 0.020190964 -0.02488961 -0.019867906 0.021363802
-0.019273056 -0.034705225 0.047578067 -0.023158278 -0.03168991 0.022911506 0.018012099 0.020186441
0.032188237 0.029404517 -0.032566316 0.014873761 -0.0021431835 -0.02776746 0.0018235557 -0.046816856
-0.0038450088 0.017259872 -0.009962681 -0.03720429 0.014319165 -0.017706243 -0.0003959948 -0.01636998
-0.009610676 -0.0063839355 -0.0044592214 -0.01430215 -0.018691074 -0.0012550671 -0.03834051 0.029550923
0.008488553 -0.0060538733 -0.02194589 0.023534002 0.0076327054 -0.0036207184 0.033809263 -0.010760946
00000000: 06ee 8cbc bf79 08bd 1b83 06bc 5128 363c
00000010: 4724 c2bb cf2e f43b 8dc5 00bd c908 f4ba
00000020: 4dac 103c 292c 19bd e034 c43c 17cc 1abd
00000030: 2eaa 7fb9 5cfe 33bc 447a 523d cc01 51bd
00000040: e66a d33b 1229 193b 2950 d73c 3f01 01ba
00000050: 1c2e c33c e71d 4cbc 8bc3 3dbc 4f52 d5bc
00000060: e8d1 03bc b6bc 083d 60ef 393c 68bd 90bb
00000070: 0def d03c c8fb 07bd 9061 cdba 15e9 25bd
00000080: b0a9 e23b c9f2 753c 888d 553c 0ed5 0fba
00000090: 5143 d13b 7d4b d53a 0635 acbb fbfd 22bc
000000a0: 2941 efbc bae2 b6bc 92f0 15bd 8ce4 903c
000000b0: 7e9d 9d3c 7e5f 0cbd ead0 113d 8290 8f3c
000000c0: 6705 ba3b e5a5 683c 46e1 bbbc ff3c b63c
000000d0: 12f1 65bd 6471 a0bc 6ab5 db3c fdb7 093d
000000e0: 4fda 49ba ed39 57bd dc73 423c e35c 253c
000000f0: 854f ce3a a8ad 48ba 8b39 433c 205d 863c
00000100: c5d4 9ebd 3f95 18bd 90b0 f2bc 472b 573a
00000110: bc1a 93bb 4ce6 103d e17b c5bc 52bc ff3c
00000120: 58f8 dcbb 79b3 2abd bc67 5a3b 104d 18bc
00000130: cbb8 cabc 4606 17bd 3afd 5c3b ffcc 873c
00000140: 6835 27bd efef e93b 2d8a 173d 04b6 f7bc
00000150: 8567 a53c 4ce5 cbbc 05c2 a2bc 2403 af3c
00000160: 87e2 9dbc 1127 0ebd 38e1 423d 6eb6 bdbc
00000170: 47cd 01bd e9b0 bb3c 1c8e 933c 095e a53c
00000180: d0d7 033d bee1 f03c 4264 05bd 13b1 733c
00000190: a774 0cbb 9678 e3bc 6004 ef3a 08c3 3fbd
000001a0: 8bfc 7bbb 9364 8d3c 833a 23bc 8763 18bd
000001b0: ee9a 6a3c af0c 91bc 869d cfb9 561a 86bc
000001c0: 1976 1dbc 5530 d1bb a91e 92bb 9153 6abc
000001d0: 061e 99bc 1081 a4ba f00a 1dbd c714 f23c
000001e0: 9213 0b3c 925f c6bb dec7 b3bc 61ca c03c
000001f0: c61b fa3b 9349 6dbb 957b 0a3d ae4e 30bc

fc2.weight f4 [10, 128]
0.07292698 0.08812178 -0.04503729 0.11517627 -0.19826755 0.08004268 -0.020537898 -0.10571034
-0.056345742 -0.13669692 0.09141005 -0.0357385 0.0059615304 -0.22859728 -0.11921839 0.18371436
0.11737236 -0.016438251 -0.25198233 -0.12150709 -0.09174687 0.12124095 -0.05420778 -0.04262103
-0.14412116 0.13601813 -0.38686684 0.0743738 0.0598334 -0.044674225 0.1349923 -0.05310298
-0.2432009 -0.16688785 -0.15164012 -0.19567195 -0.23923492 0.15668881 0.12416815 0.08475877
0.184005 -0.068955205 -0.12131657 -0.018191023 0.0792641 0.08906828 0.047033496 -0.05178923
-0.09787456 -0.074199446 -0.13011172 -0.1576393 0.056476187 0.030419564 -0.08724529 -0.13176787
-0.089397706 -0.034154594 0.07962607 0.15751311 0.0013764303 0.11287867 0.10841887 0.122725986
-0.04669261 -0.14138469 0.08085477 -0.030454446 0.02773417 -0.058448724 -0.033901915 -0.030267281
-0.1337123 0.016957434 -0.022322332 0.06883739 0.076529525 0.06437305 0.04864438 -0.1583557
0.00018703831 -0.23343644 0.04368249 -0.025330001 -0.023811318 -0.35974798 -0.3286842 -0.17043024
-0.06376789 0.15797877 -0.07545349 -0.12882063 -0.065485194 0.10937968 -0.20811877 0.12705585
0.046145473 -0.0066965288 -0.028558575 0.09703103 -0.018084643 0.16784732 0.05196291 -0.18805003
-0.081069686 0.05009161 -0.17908007 0.13258828 0.09068941 0.010543666 -0.13965891 -0.22731099
0.04472745 -0.037313357 -0.020679835 -0.1833626 -0.4182774 -0.11855066 0.087802716 -0.06552239
-0.17807402 0.10411264 0.022932813 0.057773255 0.12934059 -0.023038777 0.04439511 0.16329713
0.045104302 0.013823139 0.07067091 -0.049680587 -0.08760187 -0.025273714 0.11654572 0.102492005
-0.10575663 0.057305764 -0.10298565 -0.03180556 -0.12225686 0.05824658 -0.06356104 -0.09898204
-0.061554715 -0.26626727 -0.08473678 -0.07543665 0.05795432 -0.13278542 -0.12815538 -0.108428426
0.07481119 0.26846874 -0.09110178 -0.0946053 -0.23654993 -0.11280865 0.052407246 -0.061104935
0.12050108 0.10510987 0.03844723 0.09563975 -0.006679884 -0.09916751 0.14405513 -0.27390403
-0.10820429 0.07944645 0.14162958 0.10786549 -0.33295134 0.13341856 -0.13138944 -0.21522601
-0.11964253 -0.042071916 0.079758964 0.0028538741 0.12260928 -0.028661454 -0.033285957 -0.013279707
0.3054472 0.1293729 -0.24225055 0.035175674 -0.029902408 -0.031423233 0.002331217 0.092491016
0.15531464 0.017828392 -0.20656952 -0.119288154 0.15038899 0.0043241223 -0.058089003 -0.07189265
0.11577637 -0.05151172 -0.2566957 -0.20479096 -0.23626477 -0.16639936 0.042032346 -0.06996771
-0.20849483 -0.0013892523 -0.19753517 0.18843895 0.113479555 0.10133639 -0.05175112 0.01682028
-0.057439007 -0.08794556 0.008486955 0.08214726 4.9291393e-05 0.18525141 0.07846037 -0.027221546
-0.022124762 0.3841256 0.13523133 -0.14753059 -0.060311098 -0.16728212 -0.22045103 -0.122710116
-0.091416165 0.16263114 0.022277143 0.057813205 0.113374375 -0.02534649 0.093722284 0.061380554
0.076329224 -0.015796049 -0.13921848 0.2694805 0.180829 -0.14929788 0.1223189 -0.20196794
-0.19427893 -0.04483342 -0.3305117 -0.066191085 -0.05437409 -0.028753791 0.05947017 -0.075463586
00000000: be5a 953d 3179 b43d 0579 38bd 89e1 eb3d
00000010: a606 4bbe 6bed a33d 183f a8bc aa7e d8bd
00000020: cbca 66bd 47fa 0bbe 3135 bb3d 8962 12bd
00000030: f158 c33b 6815 6abe c528 f4bd 9e1f 3c3e
00000040: eb60 f03d 83a9 86bc d403 81be b6d8 f8bd
00000050: c8e5 bbbd 2d4d f83d fa08 5ebd 6493 2ebd
00000060: 7f94 13be 5648 0b3e 6913 c6be 4a51 983d
00000070: de13 753d 52fc 36bd 6c3b 0a3e 8382 59bd
00000080: a809 79be a6e4 2abe 8c47 1bbe 3a5e 48be
00000090: 00fa 74be 0873 203e df4b fe3d 0296 ad3d
000000a0: cf6b 3c3e 6338 8dbd d274 f8bd 5705 95bc
000000b0: 3755 a23d 6e69 b63d 32a6 403d f220 54bd
000000c0: 7572 c8bd e1f5 97bd 023c 05be 326c 21be
000000d0: 9353 673d 7332 f93c a9ad b2bd 28ee 06be
000000e0: 2516 b7bd b0e5 0bbd fe12 a33d 1e4b 213e
000000f0: 5669 b43a ef2c e73d b60a de3d c357 fb3d
00000100: c040 3fbd 26c7 10be 3097 a53d 9a7b f9bc
00000110: c532 e33c ee67 6fbd bcdc 0abd 17f3 f7bc
00000120: e1eb 08be 51ea 8a3c 53dd b6bc 9efa 8c3d
00000130: 83bb 9c3d 05d6 833d 543f 473d ff27 22be
00000140: b71f 4439 f609 6fbe 69ec 323d dd80 cfbc
00000150: f40f c3bc e330 b8be 4c49 a8be 4485 2ebe
00000160: bd98 82bd 30c5 213e 5c87 9abd 8ee9 03be
00000170: 1a1d 86bd 7402 e03d 161d 55be ee1a 023e
00000180: 0903 3d3d 8e6e dbbb acf3 e9bc 34b8 c63d
00000190: 3f26 94bc 2be0 2b3e 0fd7 543d 3090 40be
000001a0: dd07 a6bd dc2c 4d3d c460 37be 39c5 073e
000001b0: 5fbb b93d 57bf 2c3c bf02 0fbe 36c4 68be
000001c0: 2134 373d e4d5 18bd c268 a9bc 68c3 3bbe
000001d0: 7528 d6be b0ca f2bd e9d1 b33d 9a30 86bd
000001e0: 0959 36be 0239 d53d 98dd bb3c a6a3 6c3d
000001f0: dc71 043e d1bb bcbc a6d7 353d 5d37 273e
00000200: 4abf 383d 727a 623c e9bb 903d df7d 4bbd
00000210: 9c68 b3bd d20a cfbc 86af ee3d 54e7 d13d
00000220: ef96 d8bd 73b9 6a3d 24ea d2bd 8c46 02bd
00000230: ce61 fabd f793 6e3d 4a2c 82bd 19b7 cabd
00000240: cc20 7cbd 2f54 88be 7a8a adbd 887e 9abd
00000250: 8261 6d3d e7f8 07be 2a3b 03be b90f debd
00000260: 9c36 993d bc74 893e 9293 babd 6cc0 c1bd
00000270: 253a 72be 3908 e7bd fba8 563d 2b49 7abd
00000280: 45c9 f63d d843 d73d d87a 1d3d c6de c33d
00000290: eee2 dabb 5618 cbbd 3083 133e 263d 8cbe
000002a0: 369a ddbd d2b4 a23d 5807 113e 95e8 dc3d
000002b0: 9978 aabe e09e 083e f48a 06be 3564 5cbe
000002c0: 2507 f5bd 9a53 2cbd ab58 a33d 1008 3b3b
000002d0: 931a fb3d 6dcb eabc db56 08bd 2193 59bc
000002e0: 9363 9c3e 547a 043e 8710 78be 5e14 103d
000002f0: e5f5 f4bc a6b5 00bd 55c7 183b ee6b bd3d
00000300: cd0a 1f3e d90c 923c f686 53be 594d f4bd
00000310: 92ff 193e 5eb1 8d3b bcee 6dbd 743c 93bd
00000320: 291c ed3d f4fd 52bd 9e6d 83be b9b4 51be
00000330: 64ef 71be 9864 2abe 1c2a 2c3d 3b4b 8fbd
00000340: ab7f 55be 9217 b6ba a946 4abe 24f6 403e
00000350: f867 e83d 7489 cf3d fbf8 53bd afca 893c
00000360: 2a45 6bbd cd1c b4bd df0c 0b3c d33c a83d
00000370: 3bbe 4e38 8cb2 3d3e d5af a03d b8ff debc
00000380: fd3e b5bc 1cac c43e 157a 0a3e 4212 17be
00000390: c508 77bd 014c 2bbe eabd 61be 714f fbbd
000003a0: 6638 bbbd c788 263e 8e7e b63c 8acd 6c3d
000003b0: d330 e83d 71a3 cfbc 78f1 bf3d 2d6a 7b3d
000003c0: 7f52 9c3d b766 81bc 4a8f 0ebe 59f9 893e
000003d0: 3d2b 393e 8be1 18be 5582 fa3d afd0 4ebe
000003e0: 0ef1 46be 40a3 37bd d438 a9be 318f 87bd
000003f0: 5eb7 5ebd 128d ebbc fe96 733d a78c 9abd

fc2.bias f4 [10]
-0.08263142 -0.03799517 -0.042748045 0.057552513 0.050678458 0.0266263 -0.093112394 -0.031872407
0.115312174 0.06962762
00000000: a93a a9bd d3a0 1bbd 9318 2fbd 2fbc 6b3d
00000010: 3794 4f3d 661f da3c b6b1 bebd a48c 02bd
00000020: ca28 ec3d ed98 8e3d
