output/cnn_mnist.pt (torch, 90392 bytes, 8 tensors)

conv1.weight f4 [10, 1, 5, 5]
0.433713 0.062345356 0.24978316 0.2694443 0.49920714 0.3450989 0.48215574 0.15959
0.4420731 0.5999709 0.091300815 0.45457253 0.065484025 -0.1011036 0.034166325 0.37837818
0.27242833 -0.09447149 -0.244803 -0.34556 -0.021371955 -0.24374314 -0.48784775 -0.50610816
-0.07569917 0.53669935 0.6038443 0.29537722 -0.039919313 -0.34002173 0.4034791 0.2583184
0.3061231 -0.26755592 -0.56683636 0.43294883 0.5344921 0.27927288 -0.61542845 -0.64810175
0.26569554 0.38425583 0.06466067 -0.45613953 -0.6054562 0.34346294 0.3889234 0.013356702
-0.42692807 -0.5765128 -0.5814374 -0.21702941 -0.044138633 -0.0017651729 0.23243949 -0.24052577
-0.065153055 -0.053009965 0.45989907 0.5153534 -0.28253093 0.33358413 0.52607375 0.5604026
0.59701276 0.085858665 0.31756955 0.000810073 0.09235963 0.008056975 0.05402777 -0.09642825
0.008143156 -0.20653813 -0.044556186 -0.14752392 -0.09142999 -0.24596694 0.13463154 -0.046675075
-0.34727097 -0.36584818 0.10707158 0.14564666 0.41039845 -0.3527335 -0.12958562 0.318862
0.48145655 0.26066995 0.30994818 0.4220185 0.66173357 0.29832205 -0.03074514 0.3689859
0.3696053 0.35598913 0.055027824 0.014362165 0.10097347 0.8452045 0.6501495 0.08893587
-0.013394296 0.45595098 0.83819664 0.34960657 0.06683078 -0.16576254 0.03490562 0.2803163
0.11947308 0.30163586 0.13953 -0.07896896 -0.38165945 -0.19570483 -0.06514616 0.04198881
-0.09423051 -0.3209483 -0.10144694 0.08319539 0.05050725 0.24550124 0.37315902 0.11976367
0.04019575 -0.2910328 0.20396984 0.42037728 0.2515828 -0.13309543 -0.0004718287 0.059450198
0.45919323 0.72967696 0.4048111 -0.04991578 -0.027560731 0.10725109 0.30891928 0.37669358
0.30694535 -0.44411123 -0.022666028 -0.07184867 0.30635896 0.2688547 -0.085183725 0.21409748
0.28294566 -0.04185081 -0.29351604 -0.1838757 0.22554076 0.13586469 0.042107247 -0.62660635
-0.011807912 0.16330367 0.25924018 0.012363611 -0.97339773 0.105704926 0.3061281 0.061859634
-0.24044472 -0.8836726 0.34019777 0.391554 -0.071397886 -0.64905614 -0.68304414 0.1710131
0.3908943 0.47119018 0.62291354 0.5839706 0.24257083 0.48863006 0.429756 0.49465236
0.31661665 0.33978212 0.2786717 0.18756999 -0.0717121 -0.15746635 -0.2720022 -0.5732077
-0.6953751 -0.6982647 -0.5145192 -0.60430515 -0.83572984 -0.9058518 -0.605042 -0.32702884
-0.08525008 0.27905554 0.16545662 -0.02039926 0.014797443 -0.30286944 0.31286302 0.021688823
0.21286105 0.1309046 -0.10609469 0.23896423 0.102394685 0.3794476 -0.12215723 0.12941743
0.077221096 -0.07982201 0.46837345 0.47904122 0.08319902 -0.23245099 0.055059344 0.06816848
0.41995868 -0.06417163 0.40180027 0.32842368 0.07793295 -0.5267415 -0.022779398 -0.027834274
0.11091085 0.6413329 0.44524097 0.25136808 -0.008526608 0.3144857 0.77401507 0.7641742
-0.22793403 -0.18642786 -0.40349984 0.0995743 0.5054118 -0.3782535 -0.86457545 -0.77516824
-0.49877554 -0.008102683
00000000: a10f de3e d85d 7f3d 28c7 7f3e 9af4 893e
00000010: 1498 ff3e ceb0 b03e 1edd f63e 906b 233e
00000020: 6857 e23e b197 193f ecfb ba3d bbbd e83e
00000030: 7d1c 863d 670f cfbd fdf1 0b3d c9ba c13e
00000040: ba7b 8b3e 457a c1bd a3ad 7abe 3eed b0be
00000050: 3d14 afbc cd97 79be 2ec7 f9be 4e90 01bf
00000060: 2b08 9bbd 2165 093f 8a95 1a3f af3b 973e
00000070: 6f82 23bd 5417 aebe d094 ce3e 4f42 843e
00000080: 2bbc 9c3e 17fd 88be 301c 11bf 78ab dd3e
00000090: 79d4 083f dbfc 8e3e b88c 1dbf ffe9 25bf
000000a0: 3f09 883e 2ebd c43e d06c 843d 1f8b e9be
000000b0: 2dff 1abf 60da af3e f820 c73e 12d6 5a3c
000000c0: 5196 dabe 5896 13bf 15d9 14bf f53c 5ebe
000000d0: b6ca 34bd 605d e7ba 9e04 6e3e 634c 76be
000000e0: f76e 85bd fa20 59bd e477 eb3e 33ee 033f
000000f0: e5a7 90be 8acb aa3e c5ac 063f 8b76 0f3f
00000100: d4d5 183f abd6 af3d 7a98 a23e 145b 543a
00000110: 0c27 bd3d 6701 043c 394c 5d3d 2d7c c5bd
00000120: df6a 053c bb7e 53be 8c80 36bd 8310 17be
00000130: a63f bbbd c2de 7bbe dadc 093e 5d2e 3fbd
00000140: 80cd b1be 7450 bbbe 5848 db3d 6624 153e
00000150: bf1f d23e 7c99 b4be 18b2 04be e141 a33e
00000160: 7981 f63e 8876 853e 87b1 9e3e cf12 d83e
00000170: 5f67 293f abbd 983e 3bdd fbbc b8eb bc3e
00000180: e83c bd3e 3544 b63e db64 613d 494f 6b3c
00000190: 2ecb ce3d 525f 583f 3370 263f 0224 b63d
000001a0: c073 5bbc 6872 e93e 0e94 563f a2ff b23e
000001b0: 93de 883d a8bd 29be 32f9 0e3d 9e85 8f3e
000001c0: 4dae f43d 0470 9a3e f4e0 0e3e 7aba a1bd
000001d0: de68 c3be d966 48be 5a6b 85bd 75fc 2b3d
000001e0: edfb c0bd 5653 a4be 6ac3 cfbd 5862 aa3d
000001f0: b1e0 4e3d ad64 7b3e b30e bf3e a846 f53d
00000200: 4ca4 243d 4002 95be 78dd 503e b13b d73e
00000210: 76cf 803e 2b4a 08be c75f f7b9 0d82 733d
00000220: 601b eb3e 1ccc 3a3f 6743 cf3e 7d74 4cbd
00000230: 0bc7 e1bc 76a6 db3d ab2a 9e3e fbdd c03e
00000240: f127 9d3e 8c62 e3be 1bae b9bc 6525 93bd
00000250: 15db 9c3e 53a7 893e ce74 aebd 5f3c 5b3e
00000260: 41de 903e c16b 2bbd bc47 96be e949 3cbe
00000270: 28f4 663e 1d20 0b3e a678 2c3d 4669 20bf
00000280: f975 41bc 1439 273e 21bb 843e be90 4a3c
00000290: 9830 79bf d37b d83d d3bc 9c3e 8760 7d3d
000002a0: 2437 76be 5e38 62bf 672e ae3e c479 c83e
000002b0: 0e39 92bd 8b28 26bf fbdb 2ebf 0f1e 2f3e
000002c0: 4c23 c83e d73f f13e 4377 1f3f 197f 153f
000002d0: 7d64 783e b82d fa3e fa08 dc3e 1343 fd3e
000002e0: 941b a23e ecf7 ad3e 0fae 8e3e 5912 403e
000002f0: cbdd 92bd dc3e 21be df43 8bbe bdbd 12bf
00000300: 1a04 32bf 7ac1 32bf 88b7 03bf beb3 1abf
00000310: 64f2 55bf e7e5 67bf 08e4 1abf 5370 a7be
00000320: 9897 aebd 5ee0 8e3e 766d 293e 591c a7bc
00000330: f970 723c b411 9bbe 952f a03e c2ac b13c
00000340: 3ff8 593e db0b 063e 2c48 d9bd 0ab3 743e
00000350: 4eb4 d13d f546 c23e 922d fabd 0186 043e
00000360: 1826 9e3d b979 a3bd a5ce ef3e e444 f53e
00000370: 3f64 aa3d a207 6ebe e885 613d eb9b 8b3d
00000380: d304 d73e 6a6c 83bd c4b8 cd3e 2627 a83e
00000390: 4f9b 9f3d 88d8 06bf dc9b babc b404 e4bc
000003a0: 3a25 e33d 652e 243f a0f6 e33e 51b3 803e
000003b0: 30b3 0bbc 4504 a13e da25 463f eca0 433f
000003c0: 8a67 69be f2e6 3ebe 8897 cebe 9ced cb3d
000003d0: ab62 013f 71aa c1be d154 5dbf 6d71 46bf
000003e0: 825f ffbe 1ec1 04bc

conv1.bias f4 [10]
0.056306086 -0.09332328 -0.061369736 -0.068697624 -0.0016420262 -0.05237427 0.3703675 0.40876785
-0.12462367 0.013816358
00000000: 36a1 663d 4720 bfbd d55e 7bbd 57b1 8cbd
00000010: 4239 d7ba 6786 56bd cfa0 bd3e 054a d13e
00000020: b23a ffbd 015e 623c

conv2.weight f4 [20, 10, 5, 5]
-0.02980119 -0.0017401887 -0.027164599 0.007095476 -0.029680049 -0.0616361 -0.08089904 0.21624915
0.051018823 -0.100163616 -0.030070625 -0.042334635 0.067247145 -0.15485823 -0.19479486 -0.0018215552
0.009896564 0.03350632 0.11630367 0.05375954 -0.1301978 0.13609548 0.16559432 0.18154566
0.015101661 -0.042479157 0.017091408 0.051563296 -0.12438869 0.00018124623 0.077612326 0.15819053
0.15833694 -0.22412615 -0.1474864 0.12566006 0.11852259 0.10344182 -0.23064363 -0.14196025
-0.029603543 -0.0634309 -0.1133112 -0.21936023 -0.028428216 -0.1855746 -0.20720288 -0.21910067
-0.10221882 0.054939073 -0.04687387 0.024782341 0.11367023 0.06634575 0.032399435 -0.0290604
0.09381591 0.094047986 -0.11959834 -0.2589756 0.124494284 0.18239781 -0.06824218 -0.13825798
-0.08855349 0.030165728 0.04579289 -0.0018395738 0.06577663 0.005946418 -0.04144394 0.025177613
-0.059719313 0.05349819 -0.059330426 0.10299389 0.033848796 0.17129108 -0.004547014 -0.05610467
0.049744863 0.20871039 0.1882986 -0.13061719 -0.27482957 0.075354 0.12770598 -0.12077546
-0.06696884 0.08245299 -0.049231738 0.009651194 0.006017883 0.108781524 -0.0057740374 -0.1132524
-0.0969095 -0.15232807 -0.18325798 -0.2006516 -0.057623863 -0.0075264536 -0.10781778 -0.11220406
-0.080189206 0.14434747 -0.044616032 0.02091439 0.10466355 0.07970974 0.045291286 0.06952156
0.23531331 -0.05589345 -0.09419409 -0.0708101 0.0938547 0.24118735 0.026807347 -0.025248058
-0.1511108 -0.03599777 0.16169272 0.11248941 0.072934754 -0.03199718 -0.0809506 -0.01702874
-0.09146903 0.016673129 0.09836552 0.06720547 -0.08080058 -0.1763096 -0.087901615 0.17348549
0.2392931 0.18572396 -0.1306588 -0.111828916 0.06690493 0.1322098 0.24726221 0.05366669
-0.04260846 -0.1698698 -0.028841091 0.030631483 0.01600039 -0.0816376 0.06603134 -0.07507409
-0.23293142 -0.19923995 -0.006067048 0.05007737 -0.021689523 0.016270434 -0.021099329 0.18950257
0.013667683 -0.22645137 -0.09586203 -0.102934614 0.3452842 -0.081728764 -0.42550695 -0.3609193
-0.21551171 0.15243177 -0.12737991 -0.45735326 -0.20835777 -0.20492257 0.05798193 -0.12629712
-0.14993846 -0.054816566 -0.1272259 -0.11109096 -0.21562095 -0.42561015 -0.051466513 0.1627752
0.009502189 -0.26936832 -0.32625195 -0.27320027 -0.34359542 -0.104549 -0.12862442 -0.14182168
-0.050268732 0.14955498 0.089982815 -0.029873133 0.1350818 0.23017539 0.2322581 0.18100663
-0.010486421 0.02072767 -0.044723485 -0.026049472 -0.11451999 0.11992641 0.14688659 -0.005655604
-0.095409416 -0.11928112 0.1650688 0.1958215 0.02905159 -0.10602027 -0.04941457 0.090635754
0.14851259 0.09938246 -0.010959348 -0.052849878 -0.073901065 -0.08391676 -0.111515954 -0.07299709
-0.2304299 -0.13238241 -0.15961502 -0.08967475 0.007746153 0.020795736 -0.05590019 -0.19278084
-0.12522013 0.09564849 -0.010668437 0.24591114 0.26410416 -0.031585816 0.04509405 -0.020747386
0.08012488 0.34806788 0.26961833 0.13131188 -0.002986584 -0.013082917 0.04360828 0.18806033
0.096934095 -0.008218458 0.07019429 0.046346832 -0.0071159187 -0.010377354 0.13299502 0.24724959
00000000: a021 f4bc 0b17 e4ba 4b88 debc 2b81 e83b
00000010: 9323 f3bc 2376 7cbd 65ae a5bd 6b70 5d3e
00000020: 1df9 503d 9522 cdbd ac56 f6bc 1567 2dbd
00000030: dfb8 893d 2893 1ebe 4e78 47be 40c1 eeba
00000040: 3325 223c ec3d 093d 9e30 ee3d f732 5c3d
00000050: 9252 05be 9d5c 0b3e 8f91 293e 1be7 393e
00000060: f56c 773c a0fe 2dbd 4803 8c3c 0934 533d
00000070: 7fbf febd ea0c 3e39 36f3 9e3d b3fc 213e
00000080: 1423 223e 5381 65be ad06 17be 08ad 003e
00000090: f9bb f23d 4ed9 d33d d82d 6cbe 075e 11be
000000a0: 2183 f2bc 0fe8 81bd b40f e8bd f89f 60be
000000b0: 4ae2 e8bc 4507 3ebe fe2c 54be ed5b 60be
000000c0: 1a58 d1bd cb07 613d d1fe 3fbd 5604 cb3c
000000d0: f0cb e83d 48e0 873d 45b5 043d 1310 eebc
000000e0: 8e22 c03d 3b9c c03d f9ef f4bd 7398 84be
000000f0: dcf6 fe3d 7ec6 3a3e 8ec2 8bbd 8093 0dbe
00000100: 885b b5bd 1e1e f73c 5391 3b3d db1d f1ba
00000110: e6b5 863d 2bda c23b 1fc1 29bd 4841 ce3c
00000120: 3d9c 74bd eb20 5b3d 7604 73bd 76ee d23d
00000130: 09a5 0a3d ee66 2f3e 1eff 94bb 03ce 65bd
00000140: 45c1 4b3d 2db8 553e 59d1 403e 83c0 05be
00000150: 76b6 8cbe 3353 9a3d 5bc5 023e 2059 f7bd
00000160: f626 89bd 1ddd a83d 38a7 49bd 0b20 1e3c
00000170: a931 c53b d9c8 de3d 2334 bdbb e0f0 e7bd
00000180: 7d78 c6bd e4fb 1bbe fba7 3bbe 9d77 4dbe
00000190: 0007 6cbd 78a0 f6bb 91cf dcbd 3ecb e5bd
000001a0: 3d3a a4bd d3cf 133e 4dbf 36bd a854 ab3c
000001b0: d859 d63d dc3e a33d 5b83 393d 5261 8e3d
000001c0: f9f5 703e 88f0 64bd d5e8 c0bd e304 91bd
000001d0: e536 c03d d1f9 763e 159b db3c 04d5 cebc
000001e0: cabc 1abe 6672 13bd c792 253e d960 e63d
000001f0: d15e 953d 7a0f 03bd 6ec9 a5bd db7f 8bbc
00000200: 1d54 bbbd 1696 883c dd73 c93d 05a3 893d
00000210: c67a a5bd 818a 34be c305 b4bd 2ea6 313e
00000220: 4009 753e 6c2e 3e3e 6ccb 05be 8f06 e5bd
00000230: 7405 893d 0162 073e 4e32 7d3e 9ad1 5b3d
00000240: 3586 2ebd 59f2 2dbe 2744 ecbc e0ee fa3c
00000250: 4013 833c 9d31 a7bd 703b 873d 72c0 99bd
00000260: 9385 6ebe 8f05 4cbe 16ce c6bb ee1d 4d3d
00000270: 3aae b1bc 9349 853c 80d8 acbc f60c 423e
00000280: 6bee 5f3c dee2 67be 5053 c4bd 62cf d2bd
00000290: 17c9 b03e 6961 a7bd 0cdc d9be 6aca b8be
000002a0: 1aaf 5cbe 1317 1c3e e16f 02be 352a eabe
000002b0: bd5b 55be 39d7 51be 767e 6d3d 0854 01be
000002c0: 7889 19be 5687 60bd 8247 02be a883 e3bd
000002d0: bdcb 5cbe 93e9 d9be 8dce 52bd 8bae 263e
000002e0: 12af 1b3c a5ea 89be 7f0a a7be e8e0 8bbe
000002f0: bdeb afbe c91d d6bd 1fb6 03be b439 11be
00000300: 96e6 4dbd f124 193e e948 b83d 80b8 f4bc
00000310: e252 0a3e 19b3 6b3e 11d5 6d3e cd59 393e
00000320: 3dcf 2bbc 13cd a93c f92f 37bd b465 d5bc
00000330: 7589 eabd fa9b f53d 7069 163e a552 b9bb
00000340: 0366 c3bd a949 f4bd cc07 293e 6e85 483e
00000350: 9afd ed3c 2821 d9bd ef66 4abd 3d9f b93d
00000360: af13 183e 0889 cb3d d68e 33bc 1d79 58bd
00000370: 7159 97bd 8ddc abbd 7a62 e4bd 807f 95bd
00000380: d1f5 6bbe 418f 07be 1f72 23be 65a7 b7bd
00000390: 71d3 fd3b d25b aa3c 99f7 64bd 5768 45be
000003a0: b539 00be 5be3 c33d abca 2ebc 21d0 7b3e
000003b0: a938 873e 2160 01bd 8ab4 383d 6cf6 a9bc
000003c0: 8318 a43d f435 b23e 6a0b 8a3e 9f76 063e
000003d0: 91ba 43bb bb59 56bc 999e 323d e392 403e
000003e0: 6285 c63d b6a6 06bc 06c2 8f3d 2dd6 3d3d
000003f0: a72c e9bb c705 2abc d92f 083e ff2e 7d3e

conv2.bias f4 [20]
-0.02021723 0.027462097 -0.00017374894 0.011978404 -0.08212762 -0.086665705 -0.19930243 0.09262757
-0.06923791 -0.1182337 -0.10131416 -0.07132354 0.025406595 0.009363192 -0.023917595 -0.072220005
0.0421865 0.070999354 -0.14733617 0.043571804
00000000: 9b9e a5bc 31f8 e03c 6030 36b9 1141 443c
00000010: 8732 a8bd ca7d b1bd f015 4cbe 86b3 bd3d
00000020: 9bcc 8dbd 8324 f2bd cc7d cfbd 1312 92bd
00000030: 7e21 d03c 1368 193c d5ee c3bc 15e8 93bd
00000040: c0cb 2c3d 1c68 913d 4bdf 16be 5978 323d

fc1.weight f4 [50, 320]
-0.05869725 -0.12695043 -0.032077484 -0.016027208 -0.04957308 -0.016638855 0.001581357 0.049685437
0.09109476 0.19245392 -0.078180596 -0.016141789 0.052379742 -0.0069958507 -0.047027867 -0.0060492144
0.23728883 -0.011251534 -0.23427281 -0.0057232995 0.080399536 -0.002121104 -0.046028197 -0.14563072
-0.105753876 0.019893857 -0.09621848 -0.06010056 0.13863508 0.13771172 -0.082109675 -0.060927387
-0.065831244 -0.031537816 0.19978389 0.11944251 -0.033252485 0.100284606 0.049033325 0.009249663
0.09779599 0.110114045 -0.08117357 0.048205245 -0.025803702 0.11001932 -0.15772764 -0.05354101
-0.037548903 -0.092578135 0.059229903 0.10943535 0.07493475 -0.016884563 0.18243091 0.20045272
0.046114303 -0.20184334 0.018287703 0.023509199 -0.07968244 -0.14775817 -0.0574676 0.036835812
-0.11709897 0.013950806 0.09307823 0.06364041 -0.10304493 0.025021328 0.08419254 0.06260146
0.09101584 -0.13456151 -0.112198226 0.029803777 -0.05832811 -0.060669895 -0.010620602 -0.020561941
-0.031032654 0.04014076 -0.022764636 -0.1813137 0.09253457 0.12492009 0.0043300637 0.096113995
-0.023275448 -0.087535426 0.14039305 0.19059832 -0.09330927 0.008689637 0.064157754 -0.0058165933
-0.033788607 -0.16200429 -0.068604454 0.056316104 0.037002448 -0.20491694 -0.031426564 0.08872088
0.08996595 0.05466046 -0.080517694 0.09512484 -0.11548103 -0.12212813 -0.11859293 0.056975678
0.08599201 -0.07544267 -0.098862804 -0.37940142 -0.08490241 0.018764913 0.0010917082 -0.15820698
0.13214554 0.11019601 -0.012953228 -0.10689386 0.0053135017 0.07734394 0.061995532 0.0076145916
-0.006866426 -0.003446447 0.036183126 -0.03731779 0.08128435 0.082362466 -0.08905121 -0.07332262
-0.09103766 -0.20513003 0.078649044 0.07406455 -0.034499034 0.08986205 0.037693415 0.011403316
-0.046498448 -0.026890581 0.059160493 0.056537982 -0.06272196 -0.10803903 -0.19292548 -0.061876796
0.03566816 0.0069164215 0.00055124215 -0.10153789 0.103364564 0.16833596 0.038468547 -0.17757612
-0.042182043 0.0629437 0.086197644 0.17228985 -0.022809636 -0.044534486 -0.053119436 0.12274709
0.05510353 -0.09581796 -0.024909703 0.053087026 0.12724623 -0.0030417787 0.07880043 -0.0059981667
-0.00058634323 0.020041693 -0.0078022103 -0.14475204 -0.04901473 -0.049826 -0.032226752 -0.0154933
0.10172912 0.1241701 0.053879265 -0.110822454 0.040968545 0.07360346 -0.028377289 -0.1424911
0.06691651 -0.09921479 -0.052784912 0.0791325 -0.06807993 0.022495314 -0.13267283 -0.013681635
-0.045012876 0.12636141 0.038252175 -0.10220801 0.121746875 -0.014064677 -0.09705213 -0.14424683
0.19241801 -0.018028788 -0.07170454 -0.27220312 0.0060577244 0.045916893 0.028574053 0.08373228
-0.12336986 -0.10775896 0.06824994 0.0693005 0.13084537 0.047053725 0.08123296 0.10489908
0.07689474 -0.023398831 -0.01851074 -0.18297192 0.014680912 0.00097588095 -0.01847051 0.0039528986
-0.14962454 -0.07583024 0.1773409 0.037175924 0.012571231 0.022493834 -0.054229666 -0.11984049
0.0058452394 -0.040391207 0.12239823 0.13550667 0.007523703 -0.015839549 0.081066005 0.18675381
0.00929402 -0.15111364 -0.07622651 0.13760997 -0.05103418 0.014191064 0.0037116157 -0.009699148
00000000: 876c 70bd 4bff 01be ae63 03bd 7e4b 83bc
00000010: 240d 4bbd 354e 88bc 8945 cf3a f582 4b3d
00000020: e48f ba3d a412 453e 261d a0bd c93b 84bc
00000030: 248c 563d 733d e5bb 4ba0 40bd 7d38 c6bb
00000040: d8fb 723e 5b58 38bc 36e5 6fbe 848a bbbb
00000050: 83a8 a43d 3802 0bbb 1088 3cbd 3820 15be
00000060: 7d95 d8bd 71f8 a23c 320e c5bd 012c 76bd
00000070: 5bf6 0d3e 4d04 0d3e 1e29 a8bd ff8e 79bd
00000080: 88d2 86bd cc2d 01bd 2694 4c3e 469e f43d
00000090: c233 08bd 0462 cd3d 2bd7 483d e68b 173c
000000a0: 4449 c83d 7983 e13d 543e a6bd dd72 453d
000000b0: 4962 d3bc cf51 e13d 5b83 21be d14d 5bbd
000000c0: e1cc 19bd 9b99 bdbd 0e9b 723d a41f e03d
000000d0: 6477 993d 7f51 8abc 2bcf 3a3e 7a43 4d3e
000000e0: 5ae2 3c3d 05b0 4ebe 18d0 953c 5d96 c03c
000000f0: 8c30 a3bd eb4d 17be 2563 6bbd 26e1 163d
00000100: 96d1 efbd ec91 643c cd9f be3d e755 823d
00000110: 3809 d3bd 87f9 cc3c 236d ac3d 3235 803d
00000120: 8366 ba3d 7eca 09be 2fc8 e5bd 0d27 f43c
00000130: 75e9 6ebd ff80 78bd 0902 2ebc 8471 a8bc
00000140: 3138 febc a36a 243d e77c babc 4caa 39be
00000150: c482 bd3d 1bd6 ff3d 35e3 8d3b 6ad7 c43d
00000160: 27ac bebc c645 b3bd 32c3 0f3e 352c 433e
00000170: ee18 bfbd fb5e 0e3c 2465 833d 1f99 bebb
00000180: ec65 0abd 74e4 25be 7e80 8cbd b7ab 663d
00000190: e18f 173d bfd5 51be 24b9 00bd 4bb3 b53d
000001a0: 1140 b83d a6e3 5f3d 76e6 a4bd d0d0 c23d
000001b0: 5181 ecbd 501e fabd dae0 f2bd 545f 693d
000001c0: 941c b03d b081 9abd 9578 cabd e740 c2be
000001d0: 51e1 adbd e0b8 993c a617 8f3a 0301 22be
000001e0: 2951 073e 72ae e13d c739 54bc 2beb dabd
000001f0: e21c ae3b 8066 9e3d 07ef 7d3d d383 f93b
00000200: c2ff e0bb c9dd 61bb c234 143d 8ada 18bd
00000210: 6978 a63d a7ad a83d 7b60 b6bd 2b2a 96bd
00000220: f471 babd 9b0d 52be c012 a13d 28af 973d
00000230: dc4e 0dbd 9809 b83d 6964 1a3d f9d4 3a3c
00000240: 2875 3ebd a349 dcbc 4652 723d 5f94 673d
00000250: 5f74 80bd 9143 ddbd 428e 45be 8672 7dbd
00000260: c718 123d 26a3 e23b 3c81 103a 19f3 cfbd
00000270: cdb0 d33d 4360 2c3e 3291 1d3d 84d6 35be
00000280: 14c7 2cbd a0e8 803d 6488 b03d c06c 303e
00000290: 46db babc cb69 36bd c493 59bd d462 fb3d
000002a0: 3db4 613d 353c c4bd 6f0f ccbc c871 593d
000002b0: d64c 023e 9458 47bb 1f62 a13d 458c c4bb
000002c0: d4b4 19ba 7a2e a43c afa9 ffbb e139 14be
000002d0: abc3 48bd 5916 4cbd 3300 04bd 9cd7 7dbc
000002e0: 5b57 d03d e54c fe3d 81b0 5c3d e2f6 e2bd
000002f0: a2ce 273d 69bd 963d 7d77 e8bc 30e9 11be
00000300: 860b 893d 2031 cbbd fe34 58bd 3810 a23d
00000310: 7e6d 8bbd 1848 b83c 63db 07be f028 60bc
00000320: 6c5f 38bd e364 013e 50ae 1c3d 6f52 d1bd
00000330: 6d56 f93d 886f 66bc 44c3 c6bd 71b5 13be
00000340: 3a09 453e 1cb1 93bc d4d9 92bd 355e 8bbe
00000350: e07f c63b 5a13 3c3d 2214 ea3c d47b ab3d
00000360: 56a9 fcbd bbb0 dcbd a0c6 8b3d 6ced 8d3d
00000370: 54fc 053e 68bb 403d 775d a63d 54d5 d63d
00000380: fd7a 9d3d e8ae bfbc d6a3 97bc fe5c 3bbe
00000390: 3588 703c 43d2 7f3a 784f 97bc 5187 813b
000003a0: 2d37 19be e34c 9bbd da98 353e c845 183d
000003b0: 91f7 4d3c fd44 b83c ed1f 5ebd ee6e f5bd
000003c0: 6c89 bf3b 4071 25bd ecab fa3d 43c2 0a3e
000003d0: 6589 f63b f1c1 81bc ef05 a63d 643c 3f3e
000003e0: f245 183c 89bd 1abe a51c 9cbd a1e9 0c3e
000003f0: 3709 51bd a381 683c 943e 733b 2de9 1ebc

fc1.bias f4 [50]
-0.0035840252 0.007877667 0.034530003 -0.12005441 -0.044422682 0.008405234 -0.07595467 -0.073238924
0.008559998 0.062063057 0.13374588 -0.039836742 -0.019971963 -0.0034448504 0.023653282 -0.0009333109
0.07510517 -0.039108127 -0.056956954 0.04455899 0.07554981 0.26165962 -0.04404299 0.2814929
-0.04306103 -0.11046347 -0.109002195 0.03897931 0.21191098 0.11678947 0.14541966 -0.013653984
0.030618124 0.19930458 0.029683337 0.07004792 -0.008222149 0.04677571 0.047454517 -0.1654755
0.08243096 0.062303256 -0.10402654 0.15907475 -0.061464533 0.17959554 0.15518826 -0.003915709
0.13702855 0.0064449264
00000000: f7e1 6abb 5511 013c 556f 0d3d 16df f5bd
00000010: 8ff4 35bd 1bb6 093c 1f8e 9bbd 4afe 95bd
00000020: 3c3f 0c3c d535 7e3d aef4 083e da2b 23bd
00000030: 3e9c a3bc 00c3 61bb 87c4 c13c 6fa9 74ba
00000040: bdd0 993d d82f 20bd b24b 69bd 7d83 363d
00000050: dcb9 9a3d 40f8 853e 6c66 34bd d61f 903e
00000060: c360 30bd ac3a e2bd 8b3c dfbd c5a8 1f3d
00000070: 31ff 583e 512f ef3d e4e8 143e f6b4 5fbc
00000080: dcd2 fa3c 8016 4c3e 782a f33c 4975 8f3d
00000090: 31b6 06bc e397 3f3d ab5f 423d 6972 29be
000000a0: 90d1 a83d b331 7f3d de0b d5bd 7ee4 223e
000000b0: 3cc2 7bbd e5e7 373e ace9 1e3e 594f 80bb
000000c0: 3651 0c3e f62f d33b

fc2.weight f4 [10, 50]
0.13137595 -0.3071343 0.1585707 0.14211698 -0.1471375 0.21258026 0.07020514 0.20494874
-0.23365128 -0.22951001 -0.3479313 -0.39287618 0.10864461 -0.2813359 0.087599106 0.16546997
-0.2090617 -0.20744029 0.13019001 -0.035756357 -0.13806823 -0.26208934 0.13175856 -0.13752624
0.12158394 -0.06306519 0.1345582 -0.26053888 0.11426154 0.22513224 -0.26010078 0.13201351
0.18755144 0.05179516 -0.12008677 0.12089531 -0.11820964 -0.24911536 -0.21015334 -0.270056
-0.35709286 -0.3425065 0.21842861 -0.12538354 -0.29075244 0.1183281 -0.21282095 0.07646465
-0.2933027 -0.10389896 -0.33242354 -0.19184512 -0.32316992 -0.2855332 -0.30106735 0.16219084
-0.2398209 -0.24484506 -0.24387392 0.096110225 0.09666068 -0.2872307 -0.23332384 0.20914505
-0.25216547 -0.25337118 0.18482476 0.13999008 -0.3104615 0.10628199 -0.17229606 0.1400052
-0.37032348 0.2154246 -0.32241702 -0.27595848 0.07326929 0.11500492 0.06559125 -0.1475496
0.1656484 -0.2178096 0.074645326 0.16982168 0.064882286 -0.33088517 -0.23158161 -0.23217455
0.20708592 -0.026590249 0.113673255 0.15389028 -0.10674504 0.12828578 -0.3221719 0.18092647
0.12743202 0.028067093 0.14885119 0.13240334 0.055359684 -0.14904077 -0.15926768 0.15367414
-0.23952104 -0.067054324 0.12464155 0.19289695 -0.24390377 0.122118205 0.122805364 -0.11947135
-0.26157382 0.26831242 0.11709505 0.14248225 0.19029775 -0.33921403 -0.22048405 -0.34779567
-0.42096058 -0.101743735 0.14497663 -0.19341177 -0.21654476 -0.23995374 -0.1711645 0.19447917
-0.2584954 -0.1994578 -0.2040646 -0.15174483 0.15963437 0.07040393 0.03527697 0.013864368
-0.3371311 0.0018481212 0.20716093 0.15791465 -0.30098376 0.0832021 0.22627203 -0.165529
0.072636716 -0.27920103 -0.13545051 0.14414379 -0.19999853 -0.06920682 0.17396922 -0.012467862
-0.35410932 0.09157733 -0.16174097 0.06762889 0.15961306 -0.21486865 -0.2478951 0.11383086
0.14809562 -0.08990965 0.12989154 -0.064229004 -0.22421855 -0.28356537 -0.0938978 -0.18787833
-0.11491569 0.16434595 -0.15007912 -0.30416316 0.0019426201 -0.29126775 0.12477131 0.13587996
0.25087786 0.02266892 -0.21938871 -0.2415287 -0.12617627 -0.27708948 -0.15564302 -0.096010804
0.14915922 -0.17465714 -0.17638011 -0.16876729 -0.13547988 0.16701852 0.14440726 0.13445738
-0.17685126 -0.25558826 0.11426464 -0.21573974 -0.33043203 0.13861066 -0.29319075 -0.16714114
0.1605694 -0.060652465 0.11103039 -0.055946775 0.13891935 -0.006350649 -0.5133527 -0.08802148
0.12530422 -0.122554906 0.13037992 0.118981704 -0.25331223 -0.25107732 0.21945171 -0.0035428158
-0.12357951 -0.095416784 -0.3494447 0.044136636 0.16563171 0.13318267 -0.15954481 -0.05912083
0.12086758 0.08778273 -0.23762196 -0.14912185 -0.18927327 -0.19826788 -0.05393511 -0.28208604
-0.02972534 0.19493356 -0.31575927 0.09062711 0.10979013 0.09863872 0.18759905 -0.23384124
-0.0062746564 0.1253087 0.026416874 0.1549432 0.01627768 -0.24616773 0.16060534 -0.1732421
0.16667672 -0.300573 -0.12648077 -0.25499472 0.17621902 -0.24258657 -0.392458 -0.14063497
00000000: 6b87 063e b540 9dbe 5c60 223e 1d87 113e
00000010: 36ab 16be a4ae 593e b6c7 8f3d 15de 513e
00000020: 4842 6fbe ac04 6bbe 0d24 b2be 1127 c9be
00000030: 1181 de3d 420b 90be 2967 b33d f670 293e
00000040: 4514 56be 3a6b 54be 8850 053e 4275 12bd
00000050: c261 0dbe 9330 86be b7eb 063e aed3 0cbe
00000060: 0001 f93d 5328 81bd a0c9 093e 5a65 85be
00000070: f401 ea3d 1189 663e ee2b 85be 8d2e 073e
00000080: 7c0d 403e 2927 543d 0df0 f5bd f697 f73d
00000090: e517 f2bd 1918 7fbe 7032 57be c844 8abe
000000a0: e0d4 b6be 035d afbe c0ab 5f3e 8b64 00be
000000b0: 81dd 94be 0156 f23d bced 59be 8099 9c3d
000000c0: c62b 96be fac8 d4bd 6b33 aabe 0c73 44be
000000d0: 8776 a5be 6831 92be 8025 9abe 5b15 263e
000000e0: 9c93 75be aab8 7abe 16ba 79be 70d5 c43d
000000f0: 09f6 c53d e70f 93be 72ec 6ebe 1f2a 563e
00000100: d51b 81be deb9 81be b442 3d3e 8f59 0f3e
00000110: cff4 9ebe 5faa d93d 616e 30be 865d 0f3e
00000120: 0a9b bdbe 4498 5c3e d813 a5be 6e4a 8dbe
00000130: 360e 963d b387 eb3d b554 863d 3e17 17be
00000140: bc9f 293e 7b09 5fbe a6df 983d bce5 2d3e
00000150: 01e1 843d c869 a9be bb23 6dbe 2abf 6dbe
00000160: 550e 543e cbd3 d9bc 86cd e83d 6a95 1d3e
00000170: 259d dabd 595d 033e b7f3 a4be ca44 393e
00000180: 8a7d 023e f6ec e53c 726c 183e be94 073e
00000190: d6c0 623d 259e 18be 1117 23be c15c 1d3e
000001a0: 0145 75be c753 89bd 1244 ff3d c786 453e
000001b0: e9c1 79be 1c19 fa3d 6181 fb3d 65ad f4bd
000001c0: 01ed 85be 3f60 893e 88cf ef3d dee6 113e
000001d0: 6add 423e 76ad adbe 92c6 61be 4612 b2be
000001e0: 2588 d7be 055f d0bd c174 143e bc0d 46be
000001f0: e9bd 5dbe 6fb6 75be bf45 2fbe 8c25 473e
00000200: 8259 84be aa3e 4cbe 4ff6 50be ff62 1bbe
00000210: 3177 233e f02f 903d 967e 103d 6027 633c
00000220: 739c acbe a83c f23a ff21 543e 61b4 213e
00000230: 8b1a 9abe dd65 aa3d dbb3 673e 6f80 29be
00000240: 8fc2 943d 70f3 8ebe 8ab3 0abe 6e9a 133e
00000250: 6acc 4cbe 4ebc 8dbd fd24 323e 0146 4cbc
00000260: d14d b5be e58c bb3d 6d9f 25be 0481 8a3d
00000270: 9b71 233e 8706 5cbe 37d8 7dbe 2720 e93d
00000280: 61a6 173e 8d22 b8bd 4a02 053e 7f8a 83bd
00000290: 8c99 65be 7b2f 91be 7d4d c0bd 2d63 40be
000002a0: eb58 ebbd 4e4a 283e 57ae 19be 46bb 9bbe
000002b0: 849f fe3a 0c21 95be 1a88 ff3d 1e24 0b3e
000002c0: 1073 803e 2cb4 b93c 6fa7 60be 4d53 77be
000002d0: 5a34 01be acde 8dbe e260 1fbe 50a1 c4bd
000002e0: 32bd 183e 52d9 32be fd9c 34be 55d1 2cbe
000002f0: 3dbb 0abe e706 2b3e 7fdf 133e 32af 093e
00000300: 7f18 35be 77dc 82be 9403 ea3d e1ea 5cbe
00000310: 632e a9be f4ef 0d3e 191d 96be 0c27 2bbe
00000320: 4e6c 243e b86e 78bd e763 e33d 7228 65bd
00000330: e040 0e3e 1b19 d0bb 156b 03bf 9b44 b4bd
00000340: c04f 003e 11fe fabd 5082 053e aeac f33d
00000350: 24b2 81be 358d 80be f3b7 603e 962e 68bb
00000360: 4117 fdbd e069 c3bd 6aea b2be 9ec8 343d
00000370: 5c9b 293e 0a61 083e b75f 23be af28 72bd
00000380: 6c89 f73d 6fc7 b33d 2c53 73be 66b3 18be
00000390: dad0 41be bc06 4bbe 10eb 5cbd 956d 90be
000003a0: 8e82 f3bc aa9c 473e 33ab a1be b59a b93d
000003b0: a6d9 e03d 1903 ca3d f719 403e 1474 6fbe
000003c0: a29b cdbb ed50 003e 3368 d83c 6ea9 1e3e
000003d0: c558 853c 6513 7cbe ba75 243e 6166 31be
000003e0: 4dad 2a3e b4e4 99be 2d84 01be ab8e 82be
000003f0: c272 343e 9d68 78be 41f0 c8be 9d02 10be

fc2.bias f4 [10]
-0.048795927 0.70739245 -0.35273457 0.23678325 -0.3010895 -0.08360838 -0.20001817 -0.09261102
0.21970572 -0.029050305
00000000: 3dde 47bd ac17 353f a099 b4be 4f77 723e
00000010: 6728 9abe df3a abbd 90d1 4cbe d9aa bdbd
00000020: 89fa 603e e8fa edbc
